Code/test_model.onnx (onnx, 2233 bytes, 5 tensors)

fc.bias f4 [5]
000000 3f 53 21 be 08 ad 92 be 7b 29 85 be ba 82 44 be
       -0.15754412 -0.28647637 -0.2600821 -0.19190493
000010 3f 94 e7 3c
       0.028268931

152 f4 [10, 5]
000000 9b 37 f6 bd e7 c4 1b be d9 85 08 3d c7 20 6e 3e
       -0.12022325 -0.15211831 0.033330772 0.23254691
000010 f4 a0 2d be 22 6f 1c 3e 7d 77 a0 3c ea b4 d0 3d
       -0.1695593 0.15276769 0.019588226 0.101907566
000020 5f a8 56 be dd 37 89 3d d7 c2 6f be 2e e6 89 be
       -0.20962666 0.06700108 -0.23414169 -0.26933426
000030 1f 19 14 be b3 c6 6e be 12 89 4f 3e 00 72 c1 3d
       -0.14462708 -0.23317985 0.20267132 0.09445572
000040 27 44 85 3d c5 bc 75 3d 83 12 bd bd 6d 25 43 3e
       0.0650714 0.059994478 -0.092320465 0.19057246
000050 60 38 92 bd 1c ea 95 be 59 76 de 3d 2c 62 20 be
       -0.07139659 -0.29280174 0.10862417 -0.1566245
000060 63 4c 96 3e 35 d3 7c 3d 72 a7 81 bd 98 4f a0 3e
       0.29355153 0.06172486 -0.06330766 0.31310725
000070 6d 1a a1 bb e1 50 ff 3d 0e e9 f4 bc a9 d1 88 3e
       -0.0049164803 0.12466598 -0.029896285 0.26722458
000080 e6 db d5 3d 69 94 19 3e 84 d0 43 3e 4f d4 3b 3e
       0.10442333 0.1499802 0.19122511 0.18342708
000090 9d 27 cc 3d 79 30 01 be 2b 82 50 be 30 8f 4a bc
       0.09968493 -0.12616147 -0.20362155 -0.01236324
0000a0 52 33 6a 3e e4 e7 47 3e b3 2e e4 bc be e0 72 bd
       0.2287114 0.19522053 -0.0278543 -0.059296362
0000b0 f6 a6 16 be 6d 7c e3 3c 5d 22 58 be 90 a6 17 3e
       -0.14712128 0.027769292 -0.21106859 0.14809632
0000c0 ed d2 91 3c 71 71 ba 3c
       0.017800773 0.022759171

197 f4 [2, 24]
000000 10 08 87 3e 21 cc b0 be 19 cf a7 3e a1 e5 ee 3e
       0.2637334 -0.34530738 0.3277519 0.46659568
000010 bf 3c 0d 3f fc 4d b7 3d fe 4a 3b 3d 08 6c 0f 3f
       0.55170816 0.08950421 0.045725815 0.5602422
000020 07 7a 0c 3e 04 54 75 bd eb 8c 70 be 90 7f a0 bd
       0.13718425 -0.059894577 -0.23491256 -0.078368306
000030 77 48 ca be 70 38 c2 3e d1 ae ed be f5 fa a1 3e
       -0.3950841 0.37933683 -0.46422437 0.31636778
000040 53 7e ce 3e 7b 75 d3 3d 6c 61 e6 be 56 14 cf be
       0.40330753 0.10325142 -0.44996202 -0.40445203
000050 47 fe 54 3e 71 51 a3 be ce 81 06 bf 4b 08 e7 3e
       0.20800124 -0.31898072 -0.52541816 0.45123515
000060 fd 73 8f 3e 0b c7 31 be 76 1e 38 3e b7 14 b2 3e
       0.2801818 -0.17361085 0.1798037 0.3478143
000070 0f d2 e5 be 70 54 06 bf a5 76 8c be 8e b2 fc be
       -0.44886824 -0.5247259 -0.2743427 -0.49354976
000080 f3 b1 fd 3d 8e 55 10 bf 46 ed e2 3e 5c 3c 6f 3e
       0.12387457 -0.56380546 0.4432165 0.23362869
000090 2a 4d 97 bd e6 2f 45 3e f9 eb a1 be 56 ac f7 be
       -0.07387765 0.19256553 -0.31625345 -0.4837367
0000a0 4e b8 12 bf f5 ef 78 be 67 95 8f be 55 d4 29 be
       -0.57312477 -0.24310286 -0.28043672 -0.16584904
0000b0 76 0d 68 be 84 7f 3f be a4 05 90 3e d2 bb 4a be
       -0.22661385 -0.18700987 0.28129303 -0.1979821

198 f4 [2, 12, 5]
000000 26 51 85 be 9e 0b af ba 23 db cf be 33 e1 88 3e
       -0.26038474 -0.0013354903 -0.40596876 0.26734313
000010 84 54 09 bf 6e db 63 bd da fb bc be 6d de e4 3e
       -0.53644586 -0.055629186 -0.36910897 0.44700947
000020 6a 51 bc be 3d 11 bb 3e 1e 94 d6 3e db 3b a7 be
       -0.36780864 0.3653659 0.4190988 -0.32662854
000030 f0 51 cb 3e 44 40 12 bf 72 0f cb be 64 51 00 3e
       0.3971095 -0.5712931 -0.3966022 0.12531048
000040 8b 79 db be c6 25 b4 be 7f df 95 be 66 1a 9b be
       -0.42866167 -0.3518507 -0.29272076 -0.30293578
000050 e0 8d 0b be 6d ce d3 3a c2 3d 4c be 3e 9c c6 3d
       -0.1362834 0.0016159542 -0.19945434 0.096977696
000060 49 8b 7a 3c 42 fe 08 3e db 78 09 bf 02 cb 5d bd
       0.015291997 0.13378242 -0.53700036 -0.05414868
000070 81 68 4e be ab 08 bb bd f0 43 af 3e 7a 96 9e bd
       -0.20157053 -0.09132513 0.3423152 -0.07743545
000080 f4 04 b2 3e d4 e3 99 be f3 69 37 bd 0a 4c 8b 3e
       0.34769404 -0.30056632 -0.044778775 0.2720645
000090 08 9f e3 3e 37 85 55 3b 9d cf 67 be 47 bb 04 3f
       0.4445727 0.0032580623 -0.22637792 0.5184826
0000a0 ec b7 95 be 23 3d f2 be 13 eb cf bd 02 95 bc 3e
       -0.29241884 -0.4731227 -0.10152259 0.36832434
0000b0 65 b8 eb 3e d8 6a e3 be b5 ca 67 be 36 74 b2 3e
       0.4603912 -0.44417453 -0.2263592 0.34854287
0000c0 7c 40 da 3e 33 e9 1b 3e 40 d6 7b 3e 3d 90 a5 be
       0.42627323 0.15225677 0.24593449 -0.32336608
0000d0 17 bc 06 3f 07 54 68 bd dc bd 80 bd f8 b4 08 3e
       0.5263075 -0.05672076 -0.06286213 0.13350284
0000e0 96 12 37 3e 80 8a bf be cf e0 9b 3e 9f 8c 0b bf
       0.17878184 -0.37410355 0.30444953 -0.54511446
0000f0 a8 c3 bb bd a0 b3 dd 3e 1b be 29 be 19 e9 26 be
       -0.09168178 0.43301105 -0.16576426 -0.16299857
000100 18 6a 12 bf 66 f5 fc 3e 3d 8a ae 3e 71 74 0e bf
       -0.57193136 0.49405974 0.34089842 -0.55646425
000110 d2 03 ac be 56 c8 2a be 23 94 8b be d1 86 00 bf
       -0.33596665 -0.16677985 -0.27261457 -0.50205714
000120 17 6f 9e be 7e 12 4b bd 34 e3 7b 3e 53 31 af bd
       -0.3094413 -0.049578182 0.2459839 -0.0855433
000130 2d f5 64 bd 83 ff 0b bf 18 3f b4 3d 87 e9 ba bd
       -0.05589788 -0.54686755 0.08801097 -0.09126573
000140 89 18 f8 bd ab 8e 96 be 9f 9b a4 be cd 55 ff be
       -0.12114055 -0.29405722 -0.3214998 -0.49870148
000150 ea 68 49 be 42 c1 ee bd c7 10 7c 3e 87 85 0c 3f
       -0.19668928 -0.11657955 0.24615775 0.54891247
000160 b0 1a 4d bd 66 b4 10 be 02 ee c6 3e 11 cd 17 be
       -0.05007428 -0.14131317 0.3885346 -0.1482432
000170 b1 dd 94 3e 04 d3 07 bf 5a ea 19 3d df d9 f2 be
       0.29075387 -0.5305636 0.03757701 -0.47431847
000180 f8 9d b0 3e ad c2 07 bf 30 43 ec 3e 23 e8 05 bf
       0.3449552 -0.53031427 0.4614501 -0.5230734
000190 ce f0 b9 be f1 e1 b0 3e e3 8e 8c 3e 9a ad e3 3e
       -0.36316532 0.3454738 0.27452764 0.44468385
0001a0 8e 13 93 be d4 d3 44 be f7 8b 40 3e bf fb e8 bb
       -0.28725857 -0.19221431 0.18803392 -0.0071100886
0001b0 6a 42 f3 be ae 41 9e 3e 47 a7 bb 3e 79 46 63 bd
       -0.47511607 0.30909485 0.3665106 -0.05548713
0001c0 72 01 cf be e4 2f f8 3e b4 4e 7f be 70 c7 d5 be
       -0.4043079 0.48474038 -0.24932367 -0.4175372
0001d0 42 ba 06 3f 48 f0 d1 be 56 72 e7 be 70 a9 e6 bd
       0.52627957 -0.41003633 -0.4520442 -0.112627864

199 f4 [2, 12, 3]
000000 70 8a bc 3e f1 f0 eb be e4 0c a4 3c f7 f7 75 3e
       0.3682437 -0.4608226 0.020025678 0.24020372
000010 35 1c 0c bf aa 2b 90 be ac c4 d9 3e fd ee cc 3d
       -0.5473054 -0.28158313 0.4253286 0.10006521
000020 09 1c 88 be 9d bd c9 3e f9 50 04 3f fa 3b 92 be
       -0.2658389 0.39402476 0.51686054 -0.28561383
000030 e3 87 9a 3e a4 4d 08 bf 56 d7 65 3e c0 79 80 be
       0.30181798 -0.5324347 0.22445425 -0.25092888
000040 8a 30 0e 3f aa 1c 83 be 07 28 8e 3e 24 cd fe bd
       0.55542815 -0.25607806 0.27764913 -0.12441471
000050 25 09 48 3e f4 d9 85 3e ed 97 3e 3e 18 62 48 be
       0.19534738 0.26142848 0.18612643 -0.1956867
000060 63 5f 2f 3e af de 8a 3e 39 58 d4 3e ca c1 e3 be
       0.17126231 0.2712302 0.4147356 -0.44483787
000070 e9 92 28 3c 06 97 40 3e 56 4a ce be de 4c 09 3d
       0.010288932 0.18807611 -0.4029109 0.033520572
000080 5f 56 9b be e9 02 1f 3e 38 c5 8a 3e d1 a0 02 3f
       -0.30339333 0.15528454 0.2710359 0.51026636
000090 01 96 4e 3d eb b7 ac be 23 7a 05 3f de c6 06 bf
       0.050436024 -0.33734068 0.5213949 -0.526472
0000a0 96 b2 6c 3e 18 9d 7c be 21 7b d8 3c 8c ab f1 be
       0.23115 -0.24669302 0.0264259 -0.47201192
0000b0 95 1c 69 3e 39 f3 e0 39 9f c1 0d bf f3 73 a4 bd
       0.2276481 0.00042905824 -0.5537357 -0.08029928
0000c0 33 4d 0d bf 8b 50 66 3e ca f6 56 3e 3a 51 31 bd
       -0.5519592 0.22491662 0.2099258 -0.043290354
0000d0 dc 95 13 bf 30 84 29 be ae ec f4 be fb 69 01 be
       -0.5765054 -0.16554332 -0.47836822 -0.12638085
0000e0 e9 3e 89 3e 8b bb 5d be 37 cb 09 3f 48 e5 4c be
       0.2680581 -0.21653573 0.53825706 -0.20009339
0000f0 53 71 35 be 3e eb 8b bc 0c c6 ec be b9 be f9 be
       -0.17719011 -0.017079946 -0.46244848 -0.48778322
000100 91 bd 9f 3e 27 af fa bd 04 80 b8 3c 69 99 77 3e
       0.31199315 -0.12240439 0.02252198 0.24179615
000110 eb 67 2b 3d 5c 59 ae bd 16 05 c7 be f2 27 12 3f
       0.04184715 -0.08513138 -0.38871068 0.570922
