Code/test_model_with_trans_block.onnx (onnx, 97288 bytes, 21 tensors)

fc.bias f4 [5]
00000000: b8ac 39be 6579 abbc d91f 123d 9885 e63d
00000010: df6b e1bd
-0.18132293 -0.020931909 0.035674904 0.1125595 -0.11006903

lstm_trans_block.translayer.self_attn.out_proj.bias f4 [5]
00000000: 0000 0000 0000 0000 0000 0000 0000 0000
00000010: 0000 0000
0.0 0.0 0.0 0.0 0.0

lstm_trans_block.translayer.linear1.bias f4 [2048]
00000000: ea78 b33e 52c3 093d 81da 883e fb72 8f3e
00000010: 4590 ce3e da1c bebe 8cb3 babe 1660 efbd
00000020: 0731 833e a477 9eba 8ac6 323e fbd9 b33d
00000030: 10d8 9dbe 4a2b 2c3e e971 55be eede 2dbe
00000040: 36e5 bb3e 8e61 f73d c9e4 8a3e 207d 963e
00000050: 8ea1 45bd bc96 4bbe 1b16 e3bd 8086 863e
00000060: d9e1 cdbe 6856 163e 632d a53e cf4c cfbe
00000070: 7619 aabe 24cc 66be a807 20be 2dcb 743e
00000080: 9644 bdbe 5530 2b3e 132a c33e caf0 603c
00000090: 5ac2 793e 8bad b5be 9183 7d3e 0533 3c3e
000000a0: 33eb b4be a47e 0f3e 21f2 a3be 4334 253e
000000b0: aacb 4ebe 9b93 46be cb4d afbe 6d27 b4be
000000c0: 5397 c5bc 2f6d 06be f773 27be f53e d5be
000000d0: d3f1 703d 7d06 d43e 1b07 8abe fcc1 afbe
000000e0: 5fe8 863e 7b1a 1e3e 1f4c af3d 223a bd3e
000000f0: 3518 df3e 8abc dc3d 51fb b13e 3315 6d3e
00000100: 6d66 e2be f013 6a3d 0946 9c3e 998d c2be
00000110: 1716 8e3e ca8e 313b 5528 ce3e 291f a2be
00000120: 909c b43e 1ba4 bb3b fa84 923d d7b1 963e
00000130: b15e 86bd 2b11 abbc e693 dbbd 0bb6 b73d
00000140: 07d8 17be d598 9fbe 66ad 953e 7930 bfbe
00000150: a194 183e a6a4 043d 1bdd cebd 4a3b 853e
00000160: aeed a13d 588c 66be d02d a03e 7955 563d
00000170: 8b01 1cbe 8540 e33e bb28 1cbe 5c4c 2f3e
00000180: 771b 0bbe 83d3 1dbc d6c2 b2be 4b8e 86be
00000190: a088 da3e 3ca0 94be f5ea 8e3e 2f12 30be
000001a0: 8444 ccbe 7c2d c73e 082f 1cbe b9b7 bfbe
000001b0: b820 48be cd7b 9c3e 2dbd 0bbe d25c 83be
000001c0: 6d26 f0bd d4bf a8be 7cdf 143e c897 06be
000001d0: a4c9 c13e 3dd9 05be d9e9 003e 9035 0f3e
000001e0: 8a64 dabe 0f48 da3e 9f60 35bd 49b7 01bd
000001f0: 1a04 c63e 3ba7 5d3e 802f aabe 2c49 543c
00000200: c466 22bd 6aac cbbe 4ff8 cf3e 0326 6cbe
00000210: 7a89 99be efc2 4abe 3f1e 0c3e 3a9f 39be
00000220: 923d a63d c268 a33e e1a4 27be 9bc2 26be
00000230: bc8d 443d 74f5 8fbe 3bbc fa3c de56 e3be
00000240: 66f6 2fbe 36fd 0b3e 48c6 983c bc2e 8ebe
00000250: 15f5 0fbe 1794 b7be de09 d7bd 6c47 52be
00000260: 7f95 473e fedf 95be 8ae6 183d f0e2 333e
00000270: c84f b93e a3f8 8dbe 0a77 933e 7f1b 85bd
00000280: 2564 963d 960a a5be 627b 693e 120d 0cbe
00000290: f1b5 eb3d c70e 9f3e e095 393e d4bd ddbc
000002a0: 17a7 913e c96d 613c d752 9cbe b83f 763e
000002b0: fb4d df3e 22e8 09be a669 d23e 4d80 a43e
000002c0: ad15 d13e 7aaf a4be 9394 83bc 6ba6 3e3e
000002d0: df64 083e 2c5b c5be 071e bf3e 4136 e33e
000002e0: ee52 f5bd d0c4 b5be cfbc a4be bf9a 6a3e
000002f0: 1cd9 3fbd cab7 903e 5383 2fbc d2c5 c2be
00000300: 199d bfbe c48d 823e 8c18 debe c6d5 cebe
00000310: 8f51 363d 80d1 bfbe 9f5e 953e 6be5 f3bd
00000320: ad93 97be 141b a93e ec6d d2be aa89 233e
00000330: 975e aabe 2415 a63e e9a0 973d 7015 553d
00000340: 5c8f cbbe 9eea d9be f79e a4be 27d4 15be
00000350: 32e4 9c3d 8c18 143e 8cf6 343e 471b a23e
00000360: 6a24 b4be 9204 da3e a337 46be 29c4 d63d
00000370: 975e 983e c854 71be 64bd 16be da35 42be
00000380: 77fa 97bd f8ef c4be f495 7b3e 8e59 d7be
00000390: ea3d adbe e50f 8b3e 6f6e a03e 0d59 18bd
000003a0: b170 e13e 8cd4 69be 8cbc 3a3e eeff 6c3e
000003b0: 430f 56bd 40c3 2f3e fedc 6c3e e00b e2be
000003c0: c399 f63d de29 d9be 067b b23e 6503 d5be
000003d0: ed23 ad3d 9c85 c9be 9706 a53d ad36 5fbe
000003e0: 2992 cabd 6b37 32be 32a7 98be ffb2 3ebe
000003f0: cd2a cb3e 2b39 b4be eef2 d33e 85b9 5b3d
0.35053188 0.033633538 0.26729205 0.2801741 0.40344444 -0.37131387 -0.36465108 -0.11688249
0.25623342 -0.0012090099 0.17458549 0.08781811 -0.30828905 0.16813388 -0.20844235 -0.16979572
0.36698312 0.12079154 0.27127674 0.29392338 -0.048249774 -0.1988172 -0.11088201 0.2627449
-0.4021137 0.14681399 0.3226119 -0.40488288 -0.3322255 -0.22538811 -0.1562792 0.2390563
-0.3696639 0.16717656 0.38118038 0.013729284 0.24390545 -0.35483965 0.2475722 0.18378837
-0.35335693 0.14013153 -0.32020667 0.16133218 -0.20194879 -0.19392245 -0.3423904 -0.3518633
-0.024120009 -0.13127588 -0.16352831 -0.41649595 0.05882437 0.414112 -0.26958546 -0.34327686
0.2634916 0.15439789 0.08559441 0.36958414 0.43573156 0.107781485 0.34762052 0.23152618
-0.4421877 0.05714792 0.30522183 -0.37998655 0.27751228 0.0027093166 0.40265146 -0.31664398
0.35275698 0.00572635 0.071542695 0.29432556 -0.0656103 -0.02088221 -0.10721569 0.08970269
-0.14828502 -0.3117129 0.29233855 -0.3734167 0.14900447 0.032383583 -0.10100766 0.26021796
0.07906662 -0.22514474 0.31284952 0.052327607 -0.15234964 0.44385162 -0.15249912 0.17118973
-0.13584696 -0.009632948 -0.34914273 -0.26280436 0.42682362 -0.290285 0.27913633 -0.17194436
-0.39896023 0.3890189 -0.15252316 -0.37444857 -0.19543731 0.30563203 -0.13646384 -0.25656754
-0.11726079 -0.32958853 0.14538378 -0.13143837 0.37849152 -0.13071151 0.12589206 0.13985276
-0.4265483 0.426331 -0.0442816 -0.031668935 0.38675004 0.21645825 -0.33239365 0.012956899
-0.039648786 -0.3977998 0.40619132 -0.23061375 -0.299877 -0.19800924 0.13683413 -0.18127146
0.08117212 0.3191586 -0.1637149 -0.16285174 0.04798673 -0.28116953 0.030607333 -0.44402212
-0.17183837 0.13670811 0.018649235 -0.2777003 -0.14058335 -0.3585517 -0.10499929 -0.20535058
0.19490622 -0.29272455 0.037329234 0.17567039 0.3619368 -0.27728757 0.28801757 -0.06499385
0.0734332 -0.3223464 0.22800973 -0.13676861 0.11509312 0.31065962 0.18123579 -0.027068056
0.28447792 0.013759085 -0.30531952 0.24047744 0.43614182 -0.13467458 0.41096228 0.32129136
0.4083685 -0.32165128 -0.016062057 0.18618171 0.1331973 -0.3854612 0.37327597 0.4437733
-0.11978708 -0.3550172 -0.321753 0.22910593 -0.04683791 0.2826522 -0.0107124625 -0.3804155
-0.37424543 0.25498784 -0.43378103 -0.4039747 0.044511374 -0.37464523 0.29173753 -0.119089924
-0.29604855 0.3302847 -0.4109949 0.15970483 -0.3327529 0.32438004 0.07403738 0.052022398
-0.39757812 -0.4256181 -0.3215253 -0.14631711 0.07660712 0.14462489 0.17672175 0.31661436
-0.35184032 0.42581612 -0.19357161 0.10486633 0.29759666 -0.23567498 -0.14720684 -0.18965855
-0.07420819 -0.38464332 0.24568921 -0.42060512 -0.338363 0.27160564 0.31334254 -0.0371943
0.4403129 -0.22834986 0.18235987 0.23144504 -0.05226065 0.17164326 0.23131177 -0.44149685
0.120410465 -0.42414755 0.34859484 -0.41604152 0.08454118 -0.39359748 0.080578975 -0.21798201
-0.09891159 -0.17403953 -0.2981506 -0.18622969 0.39681092 -0.35199866 0.41396278 0.053643722

lstm_trans_block.translayer.linear2.bias f4 [5]
00000000: cec2 cf39 84de 293c 96ef 1ebb 31aa 633c
00000010: 897c 993c
0.00039627258 0.010367993 -0.002425169 0.013895557 0.01873614

lstm_trans_block.translayer.norm1.weight f4 [5]
00000000: 0000 803f 0000 803f 0000 803f 0000 803f
00000010: 0000 803f
1.0 1.0 1.0 1.0 1.0

lstm_trans_block.translayer.norm1.bias f4 [5]
00000000: 0000 0000 0000 0000 0000 0000 0000 0000
00000010: 0000 0000
0.0 0.0 0.0 0.0 0.0

lstm_trans_block.translayer.norm2.weight f4 [5]
00000000: 0000 803f 0000 803f 0000 803f 0000 803f
00000010: 0000 803f
1.0 1.0 1.0 1.0 1.0

lstm_trans_block.translayer.norm2.bias f4 [5]
00000000: 0000 0000 0000 0000 0000 0000 0000 0000
00000010: 0000 0000
0.0 0.0 0.0 0.0 0.0

299 f4 [10, 5]
00000000: f772 86be 32f5 663e 4eab 31be 2918 f6bb
00000010: 2c08 82be f15c 163d 7fb5 b8bd 8bbb dbbd
00000020: 4ed8 96be 7827 97bd aede 2dbe b219 2ebd
00000030: ed06 bc3c c757 38bd 6576 dc3d b64b 933c
00000040: 198e 38be bec4 7bbe fe12 f13d cb17 643e
00000050: dac4 87be 4d76 87be 4d3f 9e3e 601c 40bd
00000060: c2d0 24be 0696 263e d347 943e 57b5 3b3c
00000070: 7dea e2bd c7d4 f73d 5070 b63c b7b6 90bd
00000080: 5e31 15be f675 8cbe 85dd ae3c c8a0 98be
00000090: e77e a7bc 93ec 343d a40a 173e 2713 96be
000000a0: 6b2e 9dbe 77b5 01be 7c8c 0ebd 8678 e5bc
000000b0: 98a5 9c3d 6892 7abe 17fb 42be f0f8 973e
000000c0: 58a9 58be 3694 8abd
-0.26259586 0.22554472 -0.17350504 -0.0075102043 -0.2539686 0.03670973 -0.09018993 -0.1072913
-0.29461902 -0.07380575 -0.16979477 -0.042504974 0.022952521 -0.045005586 0.107647695 0.017980438
-0.18022956 -0.2458677 0.117712006 0.22274701 -0.26517373 -0.26457444 0.3090767 -0.04690206
-0.1609526 0.16268167 0.28961048 0.011456809 -0.11079881 0.12101131 0.022270352 -0.070661
-0.14569613 -0.27433747 0.021345863 -0.29810166 -0.020446254 0.044170927 0.14750153 -0.29311487
-0.30699477 -0.1266688 -0.034801945 -0.028011572 0.07648772 -0.24469912 -0.19041096 0.29682112
-0.2115835 -0.0676655

315 f4 [5]
00000000: 0000 0000 0000 0000 0000 0000 0000 0000
00000010: 0000 0000
0.0 0.0 0.0 0.0 0.0

317 f4 [5]
00000000: 0000 0000 0000 0000 0000 0000 0000 0000
00000010: 0000 0000
0.0 0.0 0.0 0.0 0.0

319 f4 [5]
00000000: 0000 0000 0000 0000 0000 0000 0000 0000
00000010: 0000 0000
0.0 0.0 0.0 0.0 0.0

320 f4 [5, 5]
00000000: f003 9dbe 972e be3e 5a33 73bc 1609 b73e
00000010: 2c3a 0abf 7d6a 7b3e d90c f2bd dc5c f23e
00000020: d11c d9be 7d51 783e 5433 fb3e 5e39 b1bd
00000030: 0927 da3e b4ba 063f 6af1 e93e fe3b ed3d
00000040: 4eeb cdbe a2c6 02bf 1a8d f13e 9258 1abd
00000050: a9bd 8b3e 6a07 8cbe 4789 8ebb d756 dabe
00000060: 2479 afbe
-0.30667067 0.3714492 -0.014843786 0.3574912 -0.53995013 0.24552341 -0.11818857 0.4733647
-0.42404798 0.24249835 0.49062598 -0.0865352 0.42607906 0.52628636 0.45691997 0.11583708
-0.40218586 -0.5108434 0.47177964 -0.037682123 0.27293137 -0.27349406 -0.004349861 -0.4264438
-0.3427211

321 f4 [5, 5]
00000000: 9536 95bd a079 df3c a871 b9be 2924 5bbe
00000010: 6da6 9d3e 022e 90be 812a fb3e 376f 463d
00000020: 53d5 4bbe 6e6f b4bd ea08 76be 7d1e f9be
00000030: 15e6 873e 3c5e 943e 20fe c03e f5b6 06be
00000040: 3cdb c43e 93ab febe b588 023e 990b f13e
00000050: 2b52 42be 75fa 85bd 377c 1dbe ef7e 8f3e
00000060: f4b1 4ebe
-0.07285801 0.027279675 -0.36219525 -0.21400513 0.30791035 -0.281601 0.49055865 0.048445906
-0.19905595 -0.08810316 -0.24026838 -0.48656073 0.26542726 0.28978145 0.37693882 -0.1315573
0.38448513 -0.49740276 0.12747462 0.4707916 -0.18976657 -0.065419115 -0.15379415 0.2802653
-0.20185071

322 f4 [5, 5]
00000000: 093f 5dbe 6476 35be 50e2 eebe 784c ad3e
00000010: 0c4d 94bd 67bf bdbe d2c5 103e b6a1 f6be
00000020: 61a0 ad3e e2e3 8c3e 8722 f1bb 8307 e5bb
00000030: 5b50 db3e 08df 8c3e 5dce ab3d b73a 083f
00000040: 465a b43b ba29 a4be cdd9 893d 4cdf 283e
00000050: a94e 70be 2485 843e a1c7 2abd cf9e f0be
00000060: 6b8f 2a3d
-0.21606077 -0.17720944 -0.46657038 0.33847404 -0.07241258 -0.3706009 0.14137962 -0.4817025
0.33911422 0.2751761 -0.0073588523 -0.006989421 0.42834744 0.2751391 0.0838897 0.5321459
0.0055039255 -0.32063085 0.06730995 0.16491431 -0.23467506 0.25882828 -0.041694287 -0.4699616
0.04164068

323 f4 [5, 5]
00000000: 4c01 09be 17cf b13e e3ca e1be 591c b63e
00000010: 4ba9 953e 31dd a2be 0b7c 813e 8b7b 38be
00000020: 59a0 de3e 0b07 f5bd 2ea1 82bd a20a 26be
00000030: 3c69 b03e ab7a 063d 4f08 bcbd 1349 d7be
00000040: 9962 ac3e 8a4b 833d de16 84be f183 743e
00000050: 26c0 c0be f9b5 b63e eaf6 a73d d299 bb3b
00000060: 92ce fbbd
-0.13379401 0.3472831 -0.44100103 0.35568503 0.29230723 -0.3180938 0.2528995 -0.18015878
0.4348171 -0.11964234 -0.06378399 -0.16214994 0.34455287 0.03283183 -0.09181272 -0.4204794
0.33668974 0.06410892 -0.25798696 0.23878457 -0.37646598 0.3568571 0.08201392 0.005725124
-0.122952595

324 f4 [5, 2048]
00000000: 25d1 583e ad6e c13d f6db 8a3e 870e 61bd
00000010: 3bf5 873e b3bf 023e 901a c83e 89a3 bf3e
00000020: 4123 adbd 99a1 d23e 4909 81be ba56 5b3e
00000030: d0b5 1dbe b4a7 0f3e 30a8 b4be 676b 1a3e
00000040: 1b52 8abe 5339 54be d635 e33e 46ba 3c3d
00000050: f6af e0be 29f2 e23e d465 b6be b1ff db3e
00000060: fcf1 81bb 88ab 85be 8fac 943e 5964 803e
00000070: 32d5 823e de47 be3e 62e3 5fbe 79b0 af3e
00000080: f2ee 3bbe e5c2 8d3e 594c 123c 25a0 5d3e
00000090: 380e 063e b13d 1b3d 35de e4bd 6edf 323e
000000a0: eae7 d5be f3d6 f9bd 6fc3 ac3e ad55 143e
000000b0: 5249 69be be48 d6be 5bb6 6fbe d177 4abe
000000c0: 3418 d4be b310 98be 2847 86be 6750 923e
000000d0: b26d 133c 9f79 1cbe 56f6 683d 4072 a4be
000000e0: 5b23 743e f0a2 7abe 28ab 9cbe 81e5 193c
000000f0: 24ce 773e cb94 c0be 2498 1bbd 66b0 bcbe
00000100: 00e9 39be 2705 073e 4054 b4be 41a6 d0be
00000110: 9427 7b3e d6d6 bfbe eaa8 c23e 1181 033e
00000120: 61dd e9bb 1c23 c9bd 605e 6c3e cdce b6be
00000130: 181a df3b 5361 9c3e a3c8 8d3e b884 ea3d
00000140: 574e b4be b9c0 66bd 2e5e 283e fd1d b2be
00000150: 970e d93e b36c d53d 9f19 d8be 13f4 85be
00000160: bf85 d03e 4f04 f63c 7c8d a63e 6bdf 8abe
00000170: b9de bd3e cb9c 0cbe 6575 c43e 188e 85be
00000180: d1b7 3ebe db94 cf3e 26d0 08be 8335 8abe
00000190: 4af4 45bd c517 0fbe ce90 d1be a1b9 6abd
000001a0: 8a1f 9e3c eea1 80be daa4 98bd 1e69 44bc
000001b0: 96f6 76bc b994 733e 29f8 afbd 390d 123e
000001c0: 72eb ccbe 5f90 683e f57c 13be de78 b7be
000001d0: 951a b33e b33c 2abe 88e6 2b3e 565a 81be
000001e0: 4067 27bd 6187 9bbe 4bff 223e 7f66 e1be
000001f0: fb3c af3e ae9e 483c 4d53 a03e 3384 7f3d
00000200: 27b3 5fbe 9636 b63d 8f72 66be 21ac b8be
00000210: 6a81 38be ad92 32be 5263 3e3e c675 dfba
00000220: 53f5 e63d 32f5 d03e 6e19 52be b9a1 883d
00000230: 9d95 9dbe 121b 913d 5438 253e deea 733e
00000240: 7ed7 32be b32b b63e 16ad 47be 4b4e 383e
00000250: c1fa 52be 81c1 5d3e 4da3 173e 580e 84be
00000260: f706 e0be ac34 a0be 437b ca3e 3bc0 893e
00000270: d1dd c93e 5ee5 b43e 8046 24be 71a0 39be
00000280: aefe 95bd 7f87 c6be 6826 9a3e ba54 a53e
00000290: 6b56 4c3e 3168 50bd 97fd a03e 5cef b93e
000002a0: 0fda 0a3e 424a 243d e8ef e4be 39c5 0a3e
000002b0: 0f60 d13e 636f 8b3d dfa6 7e3e cb10 243d
000002c0: d956 933e 41e6 c8be 7bf3 46bd 53bd b7be
000002d0: 5a79 883e 0c3b dd3e 7f80 89be 8021 12be
000002e0: 3e35 263d e182 993e 7bd5 60be 6ff0 89be
000002f0: ab60 b7be dd1c 043e 3ebb 753e 9a5a 82bd
00000300: a772 183e 5d56 993e 4550 d3bd cc8a a4bd
00000310: 90b7 97be cdc6 4fbe 49ea 9d3e 9fc0 3d3d
00000320: bb52 e0be 7632 dbbc b4c7 153d b3c0 cdbe
00000330: 6206 8f3e 694b afbe 846d 2bbe c889 3d3b
00000340: f5b4 ba3d 4bdf dd3e 3105 06be 3f9f 9fbc
00000350: a92f c83c ba0c 97be 9e6f 793c 7e7b 233e
00000360: 3024 4a3e d9dd acbe 113b 593e 4b6e dcbe
00000370: 7cec 7f3e 6ead 83be b4cc d9be ee95 d3be
00000380: fd50 edbd a13e 42bd 3160 ae3d 4ad8 ba3e
00000390: 4a1d 4dbe 1433 2e3e 4649 373e 12cc c8bc
000003a0: 4fe3 85be 83e5 d9bd 1066 bb3e 702e bdbe
000003b0: 189b dabe 32b1 fd3d 0eef 903e 03fe 83be
000003c0: 626f f3bd b277 cb3e 0a58 163e 66ba 35bd
000003d0: 3677 19bd 842b c13e bfc6 4fbe 3001 dd3d
000003e0: bab8 743e f99f e2be 86ff 01be 3dff a73e
000003f0: 9db1 8dbe 7bf0 60be dd13 bdbe efb0 d9bd
0.21173532 0.09444938 0.27120942 -0.054945495 0.26554283 0.1276844 0.39082766 0.37429455
-0.0845399 0.41138914 -0.25202397 0.21419802 -0.15401387 0.14028817 -0.35284567 0.15080033
-0.27015767 -0.20724992 0.4437701 0.04607608 -0.43884248 0.4432538 -0.35624564 0.42968515
-0.0039656144 -0.2610743 0.29037902 0.2507656 0.2555328 0.37164205 -0.21864083 0.34314325
-0.18352869 0.27687755 0.0089293355 0.21643122 0.13091362 0.03790063 -0.11175195 0.17468044
-0.417785 -0.121992014 0.33742854 0.14485808 -0.22781876 -0.41852373 -0.23409407 -0.19772269
-0.41424716 -0.2970024 -0.26226163 0.28576967 0.008998321 -0.1528077 0.05687555 -0.32118416
0.23841612 -0.24476218 -0.30599332 0.009393097 0.2419973 -0.3761352 -0.03798689 -0.3685333
-0.18155289 0.13185559 -0.35220528 -0.40751842 0.24526817 -0.37468594 0.38019496 0.12842204
-0.007136986 -0.0982115 0.23082876 -0.3570465 0.0068085305 0.30543002 0.27692136 0.11451095
-0.3521602 -0.05633614 0.16442177 -0.34788504 0.42393944 0.10421123 -0.42207047 -0.26162776
0.4072704 0.030031351 0.3252982 -0.2712358 0.37083986 -0.13731687 0.38370815 -0.2608497
-0.18624808 0.40543255 -0.13360652 -0.2699395 -0.048328675 -0.13973911 -0.4093079 -0.057305936
0.019302148 -0.25123543 -0.07453318 -0.0119879525 -0.015073439 0.23787202 -0.08592255 0.14262857
-0.4002338 0.22711323 -0.14403136 -0.35834402 0.34981218 -0.16624717 0.1678716 -0.25264233
-0.04086995 -0.30376723 0.15917699 -0.4402351 0.34226212 0.012244863 0.31313553 0.062381934
-0.21845685 0.0889713 -0.22504638 -0.36068824 -0.18018118 -0.17438765 0.18592575 -0.0017048649
0.11277261 0.4081207 -0.20517513 0.06671471 -0.30778208 0.070852414 0.16134769 0.23820063
-0.17465016 0.35580215 -0.19499621 0.17998616 -0.20603468 0.21655847 0.14808388 -0.25792193
-0.43755314 -0.31290185 0.39547166 0.26904473 0.39427045 0.35331243 -0.16042519 -0.1812761
-0.07323967 -0.3877525 0.30107427 0.32291204 0.19954841 -0.050880615 0.31443474 0.3631543
0.13559745 0.04010988 -0.44714284 0.13551797 0.408936 0.06808355 0.24868344 0.040055078
0.28777197 -0.3923817 -0.048572045 -0.3588663 0.26655084 0.43209112 -0.26855847 -0.14270592
0.04057812 0.29982665 -0.21956436 -0.2694125 -0.3581594 0.12901635 0.23997208 -0.06364937
0.14887486 0.29948702 -0.103180446 -0.08034286 -0.29632235 -0.2029068 0.30842808 0.046326276
-0.43813118 -0.02675746 0.036567405 -0.4018608 0.27934557 -0.3423722 -0.16740996 0.0028921235
0.09116546 0.43334422 -0.13087918 -0.019485114 0.024436789 -0.29501897 0.0152243655 0.15965077
0.19740367 -0.33763006 0.21213938 -0.43052897 0.24992555 -0.25718254 -0.4253899 -0.41325325
-0.11587713 -0.04742301 0.08514441 0.3649314 -0.20030704 0.17011672 0.17899045 -0.02451137
-0.26149985 -0.10639479 0.36601305 -0.36949492 -0.42696452 0.12387313 0.28307384 -0.25779733
-0.11886479 0.39739758 0.14682022 -0.044367217 -0.037467204 0.37728512 -0.2029066 0.10791242
0.23898593 -0.44262674 -0.1269513 0.3281192 -0.2767457 -0.21966736 -0.36929217 -0.106294505

325 f4 [2048, 5]
00000000: e0d2 9b3c 69c9 ab3c 07d8 623b 2a90 d237
00000010: 1714 893c d9b4 453c 7b2d 73bc 7a2e 913c
00000020: db24 6cba 2230 45bc a06e 2f3c d3fc 0dbc
00000030: 3176 a4bc 9b84 bdbb 0e0d 8ebc aa73 9ebb
00000040: b6fe fdbb 1259 acbc 5e0a 0c3c cea6 9dbc
00000050: eb62 1e3a 1703 79bb 836a 8abc 2110 ad3c
00000060: 7bbc 6bbc 1690 283c b63f 603c d00d 63bb
00000070: 420e 77bc d00f 4c3b 8b1d a23c e23a 87bc
00000080: 3214 a2bc 5ddc 223c 1e1b 5ebc 4f05 583c
00000090: 9a9e 203c 10dd a8bc 6e73 b0bc b3cf 9dbc
000000a0: 86a7 debb 2401 633c 4a26 8c3c e4a8 b0bb
000000b0: 1a76 1f3c 068d 6e3c a63a ae3c 51d3 8fbb
000000c0: 0930 14bc 0eee 3d3c e939 6dbb 6452 58bb
000000d0: 08e3 94bc 18ee 2d3c f7e8 3a3c 7b40 783c
000000e0: 3511 ed3a 122c b43c b5d9 3839 f108 95bb
000000f0: d5f7 19bc 5bfe fd3b ea1e 783c aa85 f03b
00000100: 70a2 a63c 5fc4 a53b 8c10 8f3c 01b2 bfbb
00000110: 8085 763c 8251 bfbb 163e 993c 5cdb 82bb
00000120: 1412 13ba 11b3 083a dfef 98bc fa69 89bc
00000130: f941 503c 7e05 d43b 265a dc37 7ace 8f3b
00000140: 60f2 32bc cb95 d33b 1b50 b43c 31a1 8e3c
00000150: f4a0 aabc 6b50 75bc 33aa 23bc 1f2f 5dbb
00000160: 1c46 683b 7ee4 7d3c cf30 a2bc 3323 8ebc
00000170: fbb7 393c 831a 5cb9 7a95 3f3c 9bf4 543b
00000180: b112 adbc e045 713c 9e6f 9f3a 7ae6 433c
00000190: b08c a63c 228a c5bb 9b9c 0abc 7f30 b13c
000001a0: 259b d2bb 9db0 e13b aeb2 97bc 9adb f4b9
000001b0: 35a0 153c 40c5 a83c e571 16bb 7656 033c
000001c0: ea9e 45bc b1fa 373c 2eb8 283c 42d3 ee3b
000001d0: 222f 913c 9d26 cc3a db12 513a aed5 0dbc
000001e0: 6ea4 3a3c 330d 05bb d893 89bc cefd 3e3c
000001f0: 00bc 72bc e79b af3b 665f 8abc 436f 69bc
00000200: fbd9 21bb fd39 30bb 5ea6 313c e9ea 7d3a
00000210: fdca c5bb bb12 8b3c c85b 63bc d0d4 b638
00000220: eae4 8d3b 1fae 7bbc 382d 6a3c f0a3 5d3c
00000230: c4ad 88bb 4991 3abc 6399 35bc 18ad fb3a
00000240: 616d 6e3c 09f5 9e3c 27e0 8cbc 3a20 98bc
00000250: 2b22 9e3c 1f1d 813c 7789 db3b 8071 b73b
00000260: 0363 753b 13f3 03bc 8ed0 65bc 82bf 0cba
00000270: 6c4f e2bb c963 a1bc a9d2 fbbb 3359 b03c
00000280: a12b 8c3c 4bd7 783b 9316 a93c 5fbb 9bbc
00000290: 0324 b4bc cce4 69bc 4fd0 053c 5c56 693c
000002a0: 4930 ac3b c0d8 1c3c fce0 2c3c 0d27 a7bc
000002b0: 8ea6 b1bc f371 f9bb 7a30 423c edf3 813c
000002c0: 1398 5a3b 06a2 ffba 4735 0f3c 39e2 973c
000002d0: 95bb 9e3c af5b 9d3c f1be 4c3c 0a06 b43a
000002e0: 598d aabb e61b 333b 2351 4d3c fa78 b6bb
000002f0: 40d0 6abb ea53 1e3c 6165 8abc 01f0 833c
00000300: cac6 1d3c 1a7b ecbb 99d0 263c 3e11 0e3c
00000310: 5303 18bc a13d 8bbc c8af 59bc 22a7 953b
00000320: 6a53 073c fd94 f23b 84af 073b 3c89 823c
00000330: 602a 9d3a d827 803c c3a9 bb3b 5d67 d83b
00000340: f6dd 0cbb c148 8dbb 5d87 d7bb afcb a1bb
00000350: 6474 5ebc f147 a5bc 2926 8fbc 3036 603c
00000360: 056b b03c 3daf 8b3c acae dcbb 3b9b 5b39
00000370: e527 59bc 4fa7 8e3c 4f49 2e3c 65a0 853c
00000380: e172 3c3c c9be 863c e6e2 103c b973 15bc
00000390: d5eb c8ba cc7a 6bbc e8eb 953c 6ffc e83b
000003a0: 1eaf d33b 48f9 8f3c 4ae8 34bc cdcb 093c
000003b0: 2b69 9bbc 56e0 aa3c 787e afba 1c22 3fbb
000003c0: f484 e8b9 673d 9ebc a2ac 883c 5367 d7bb
000003d0: 320d 813c 8647 163c 7e6c 98bc 2f49 313c
000003e0: b34c a03b 72ee a3bc b290 dabb 1365 003c
000003f0: e63f 0ebc 53f8 85bc 7fcc 573c cd15 9abc
0.019021451 0.020970063 0.0034613626 2.5101082e-05 0.016733212 0.012067043 -0.014842386 0.017722357
-0.00090081774 -0.012035402 0.010707527 -0.008666235 -0.02007589 -0.00578363 -0.01734021 -0.0048355656
-0.007751311 -0.021038566 0.008547394 -0.019244578 0.00060419616 -0.0037996226 -0.016896492 0.021125855
-0.014388199 0.010288259 0.013687065 -0.0034645684 -0.015079083 0.0031137355 0.019789478 -0.01650757
-0.01978502 0.009940234 -0.01355627 0.013184859 0.009803439 -0.020613223 -0.021539416 -0.019264078
-0.0067948727 0.013855252 0.017108101 -0.005391227 0.009732747 0.01455999 0.0212682 -0.0043892046
-0.009044656 0.011592401 -0.0036197847 -0.0033008093 -0.018174663 0.010615848 0.011408082 0.015152092
0.0018086793 0.02199367 0.0001762871 -0.004548185 -0.009397467 0.007751269 0.015144089 0.0073401527
0.020341128 0.0050588096 0.017463945 -0.005850077 0.015046477 -0.005838574 0.018706363 -0.003993435
-0.0005610299 0.0005214671 -0.018669067 -0.016774166 0.012711042 0.0064703813 2.6268022e-05 0.0043886276
-0.0109220445 0.0064570657 0.022010854 0.017410846 -0.020828702 -0.014972786 -0.009989309 -0.003375001
0.003544218 0.015496371 -0.019798664 -0.017350769 0.011335368 -0.00020990711 0.011693353 0.003249443
-0.021127077 0.014726132 0.0012164002 0.011956805 0.020330757 -0.0060284296 -0.008460189 0.02162957
-0.006427186 0.006887509 -0.018517818 -0.00046702923 0.009132435 0.020601869 -0.002295607 0.008016219
-0.012061814 0.011229203 0.010297818 0.0072883675 0.01772267 0.0015575472 0.0007975527 -0.008656902
0.011391742 -0.0020302057 -0.01679413 0.011657191 -0.0148153305 0.005359161 -0.016891193 -0.014247718
-0.0024696577 -0.0026890032 0.010842888 0.00096861884 -0.006036161 0.016976705 -0.013876863 8.718076e-05
0.004330267 -0.015361338 0.014293008 0.013527855 -0.004171105 -0.011387178 -0.0110839335 0.0019201366
0.014552445 0.019403951 -0.017196728 -0.018570054 0.019303402 0.015760956 0.0066997367 0.005598247
0.0037443049 -0.008053559 -0.014026774 -0.0005369113 -0.0069064405 -0.019700902 -0.0076850248 0.021526909
0.017110648 0.0037970121 0.020640647 -0.019010244 -0.021989828 -0.014275741 0.00816734 0.014241781
0.0052547795 0.009573162 0.010551687 -0.020404363 -0.021685865 -0.0076124608 0.011852378 0.015863383
0.0033354803 -0.0019503243 0.00874073 0.018540489 0.019376555 0.019208757 0.012496696 0.001373471
-0.0052048382 0.0027329861 0.0125315515 -0.0055686207 -0.0035829693 0.009663561 -0.016894044 0.016105654
0.009629915 -0.0072168233 0.0101815695 0.008671103 -0.009278136 -0.01699716 -0.013286538 0.004567043
0.008259634 0.0074030147 0.002070398 0.01593458 0.0011990778 0.015643999 0.0057270243 0.0066041187
-0.0021494604 -0.0043116515 -0.006577416 -0.004937611 -0.013577554 -0.020175906 -0.01747425 0.013684794
0.021535406 0.017051334 -0.0067346897 0.00020943295 -0.0132541405 0.017413763 0.010637595 0.016311834
0.011501999 0.016448395 0.008843159 -0.009121829 -0.0015329072 -0.014372539 0.018300965 0.0071101706
0.0064600846 0.017574921 -0.01104171 0.008410406 -0.018971046 0.020858925 -0.0013389131 -0.0029164618
-0.00044349546 -0.019316388 0.01668388 -0.0065735965 0.015753362 0.009172326 -0.01860642 0.010820671
0.0048919558 -0.02001116 -0.006670081 0.007836598 -0.008682227 -0.016353762 0.013171314 -0.018809224

370 f4 [2, 16]
00000000: 361c f33e 0a10 2d3f c254 a53e 26ba 3d3e
00000010: 95ed c73d 3413 fabe 8f37 0e3f e566 9ebe
00000020: ac84 d63e fb4c 123f 88cb 213f 1115 403e
00000030: 598e 5fbe 27f6 2f3f 6fdc 9d3e e6be 413e
00000040: fbc8 15bf dab5 00bd 501c 2bbf 23fc 0d3f
00000050: 234d e83e f400 bbbe 8aed 21bf 102a 2abf
00000060: 80d7 d5bb 852d d93e be05 2c3f 496e 34bf
00000070: 449b 263c 2146 7ebd 4e80 5d3d 7812 e43d
0.4748246 0.676026 0.32291228 0.18528041 0.09762112 -0.48842776 0.55553526 -0.30937877
0.41898096 0.5714871 0.6320119 0.18758036 -0.21831645 0.68734974 0.3083224 0.18920478
-0.58509797 -0.031423427 -0.66840076 0.55462855 0.4537135 -0.36524165 -0.6325308 -0.6647043
-0.0065259337 0.4241754 0.6719626 -0.7048078 0.010168854 -0.0620786 0.05407744 0.11136335

371 f4 [2, 8, 5]
00000000: bbd7 75be 0e51 82be 7002 26bf 12e4 d13e
00000010: 94a1 03bf c0f2 1cbf c4d5 57be dbda f5be
00000020: 7901 0cbf def0 723b c813 34bf 9c1b a63e
00000030: 08ed e8bd cb49 24bf a9df 073f 499c fa3e
00000040: cb5c cb3e bf25 103f 3dc4 a13c 885e 15bf
00000050: f31a 12bf 7a20 643e 3a24 1a3f b7ef 1f3e
00000060: 580e 78be 95d9 2ebe 0564 c43e 8c60 c53e
00000070: b0c1 fb3d a8c9 0ebf d0f4 2d3e 725d 83be
00000080: 22ea dabe 4099 fbbd 3552 cdbd 813c 06be
00000090: b887 033c 2e34 27bd f46e 05bf c6ce 253f
000000a0: 15df 25bf 0953 0b3f c61d 27bf e54f c53e
000000b0: ec9d d8bd 6a66 8a3e 815e bebc 93db 033e
000000c0: 63d6 0fbf 606d 3abd 7d1e 25be df06 18bf
000000d0: c3e6 ce3e 5786 763e bb96 773e 35cc 853e
000000e0: 1b63 c83e 998f 233f e57f e2be fa57 c2be
000000f0: 85b0 f93e 3321 1dbf e717 31bf 3b4c 253f
00000100: 8fb4 303e f320 143f 3635 0c3f c6b4 07be
00000110: 62a4 ed3e a4bc 283f f4c6 08be a988 7a3e
00000120: e88f df3e 2a39 b93d 9d88 5d3d ad23 76be
00000130: d4f4 36be c44f 71be 2ec3 143d c846 5ebe
-0.24008076 -0.25452465 -0.6484747 0.40994316 -0.51418424 -0.6130791 -0.21077639 -0.48018536
-0.5468975 0.0037069838 -0.70342684 0.3244294 -0.11373335 -0.641751 0.53075653 0.4894736
0.39719233 0.56307596 0.019746894 -0.5834737 -0.5707237 0.22278014 0.6021153 0.15618788
-0.24224222 -0.17075188 0.3835756 0.38550222 0.12292802 -0.55776453 0.1698792 -0.2565723
-0.42756754 -0.122850895 -0.10025445 -0.13109018 0.008027963 -0.040821247 -0.52122426 0.64768636
-0.6479352 0.54423577 -0.65279806 0.38537517 -0.10576996 0.2703126 -0.023238422 0.1287673
-0.56186503 -0.045514464 -0.16124912 -0.59385484 0.40410432 0.24074684 0.24178593 0.2613236
0.3913811 0.6389099 -0.442382 -0.37957746 0.48767486 -0.61378783 -0.691771 0.64569443
0.17256378 0.57862777 0.54768693 -0.13252553 0.46414477 0.6591284 -0.13357145 0.24466194
0.4366448 0.09044106 0.054085363 -0.24037047 -0.17866832 -0.23565584 0.03631895 -0.21706688

372 f4 [2, 8, 2]
00000000: 0f6d a4be 8ccb afbe 7f1a dfbe 1e8f 143d
00000010: fd00 09bf 7ebf ad3c 0722 30bf 2cc0 213d
00000020: b6e7 b5be 5179 0bbf 5cec f23e 4a9c e23e
00000030: 1e8e b1be b5be e83e d046 2cbf e8ed 9e3e
00000040: c74e 17bd 420a 22bf 01fd 713d 37fa eebd
00000050: b387 0cbf 72c6 843e 46f4 dd3d 0be7 fb3e
00000060: 6351 9f3c be34 e03c 39f9 ddbd 13ad 483d
00000070: 92b7 ec3e 1084 3b3a fc1d 87be ba87 d5be
-0.32114455 -0.3433498 -0.43574902 0.0362693 -0.53517133 0.021209475 -0.6880192 0.03948991
-0.35528344 -0.5448199 0.47445953 0.44259864 -0.3467874 0.45457998 -0.6729555 0.31040883
-0.036940362 -0.632969 0.059079174 -0.116688184 -0.5489456 0.25932652 0.10837607 0.4919971
0.019447988 0.0273689 -0.10838551 0.04899318 0.46233803 0.0007153163 -0.26390064 -0.41705114
